…
	2017-11-11 10:13:28.198647: I tensorflow/core/platform/cpu_feature_guard.cc:137] Your CPU supports instructions that this TensorFlow binary was not compiled to use: SSE4.1 SSE4.2 AVX AVX2 FMA
	../dataset/uwb_dataset_part1.csv
	../dataset/uwb_dataset_part2.csv
	../dataset/uwb_dataset_part3.csv
	../dataset/uwb_dataset_part4.csv
	../dataset/uwb_dataset_part5.csv
	../dataset/uwb_dataset_part6.csv
	../dataset/uwb_dataset_part7.csv
	_________________________________________________________________
	Layer (type)                 Output Shape              Param #
	=================================================================
	embedding_1 (Embedding)      (None, 1016, 1024)        2764800
	_________________________________________________________________
	conv1d_1 (Conv1D)            (None, 1013, 10)          40970
	_________________________________________________________________
	conv1d_2 (Conv1D)            (None, 1009, 20)          1020
	_________________________________________________________________
	max_pooling1d_1 (MaxPooling1 (None, 504, 20)           0
			_________________________________________________________________
			conv1d_3 (Conv1D)            (None, 501, 20)           1620
			_________________________________________________________________
			conv1d_4 (Conv1D)            (None, 498, 40)           3240
			_________________________________________________________________
			global_max_pooling1d_1 (Glob (None, 40)                0
				_________________________________________________________________
				dense_1 (Dense)              (None, 128)               5248
				_________________________________________________________________
				dropout_1 (Dropout)          (None, 128)               0
				_________________________________________________________________
				dense_2 (Dense)              (None, 1)                 129
				=================================================================
				Total params: 2,817,027
				Trainable params: 2,817,027
				Non-trainable params: 0
				_________________________________________________________________
				None
				Train on 25000 samples, validate on 5000 samples
				Epoch 1/10
				25000/25000 [==============================] - 502s 20ms/step - loss: 0.4856 - acc: 0.7580 - val_loss: 0.4214 - val_acc: 0.7988
…
